…
2018-09-27 10:21:52,178 DEBUG Length of d_list of pairs: 11300
2018-09-27 10:21:52,178 DEBUG Model build
2018-09-27 10:21:52,328 DEBUG Fit
2018-09-27 10:21:53.058403: I tensorflow/core/platform/cpu_feature_guard.cc:141] Your CPU supports instructions that this TensorFlow binary was not compiled to use: AVX2 FMA
__________________________________________________________________________________________________
Layer (type)                    Output Shape         Param #     Connected to                     
==================================================================================================
input_1 (InputLayer)            (None, 84)           0                                            
__________________________________________________________________________________________________
input_2 (InputLayer)            (None, 84)           0                                            
__________________________________________________________________________________________________
dense_1 (Dense)                 (None, 200)          17000       input_1[0][0]                    
__________________________________________________________________________________________________
dense_2 (Dense)                 (None, 200)          17000       input_2[0][0]                    
__________________________________________________________________________________________________
concatenate_1 (Concatenate)     (None, 400)          0           dense_1[0][0]                    
                                                                 dense_2[0][0]                    
__________________________________________________________________________________________________
input_3 (InputLayer)            (None, 8840)         0                                            
__________________________________________________________________________________________________
dense_4 (Dense)                 (None, 100)          40100       concatenate_1[0][0]              
__________________________________________________________________________________________________
dense_3 (Dense)                 (None, 50)           442050      input_3[0][0]                    
__________________________________________________________________________________________________
dropout_2 (Dropout)             (None, 100)          0           dense_4[0][0]                    
__________________________________________________________________________________________________
dropout_1 (Dropout)             (None, 50)           0           dense_3[0][0]                    
__________________________________________________________________________________________________
concatenate_2 (Concatenate)     (None, 150)          0           dropout_2[0][0]                  
                                                                 dropout_1[0][0]                  
__________________________________________________________________________________________________
dense_5 (Dense)                 (None, 50)           7550        concatenate_2[0][0]              
__________________________________________________________________________________________________
dense_6 (Dense)                 (None, 1)            51          dense_5[0][0]                    
==================================================================================================
Total params: 523,751
Trainable params: 523,751
Non-trainable params: 0
__________________________________________________________________________________________________
None
Epoch 1/50000
 - 7s - loss: 1.0289 - acc: 0.5409 - val_loss: 0.7077 - val_acc: 0.1162
…
