…
Mon Oct  1 20:02:38 2018 len(d_list): 11300
Mon Oct  1 20:02:38 2018 Create train input arrays
2018-10-01 20:02:47.078093: I tensorflow/core/platform/cpu_feature_guard.cc:141] Your CPU supports instructions that this TensorFlow binary was not compiled to use: AVX2 FMA
20:02:46  Model build
__________________________________________________________________________________________________
Layer (type)                    Output Shape         Param #     Connected to                     
==================================================================================================
input_1 (InputLayer)            (None, 60)           0                                            
__________________________________________________________________________________________________
input_2 (InputLayer)            (None, 84)           0                                            
__________________________________________________________________________________________________
dense_1 (Dense)                 (None, 200)          12200       input_1[0][0]                    
__________________________________________________________________________________________________
dense_2 (Dense)                 (None, 200)          17000       input_2[0][0]                    
__________________________________________________________________________________________________
concatenate_1 (Concatenate)     (None, 400)          0           dense_1[0][0]                    
                                                                 dense_2[0][0]                    
__________________________________________________________________________________________________
input_3 (InputLayer)            (None, 8840)         0                                            
__________________________________________________________________________________________________
dense_4 (Dense)                 (None, 84)           33684       concatenate_1[0][0]              
__________________________________________________________________________________________________
dense_3 (Dense)                 (None, 50)           442050      input_3[0][0]                    
__________________________________________________________________________________________________
dropout_2 (Dropout)             (None, 84)           0           dense_4[0][0]                    
__________________________________________________________________________________________________
dropout_1 (Dropout)             (None, 50)           0           dense_3[0][0]                    
__________________________________________________________________________________________________
concatenate_2 (Concatenate)     (None, 134)          0           dropout_2[0][0]                  
                                                                 dropout_1[0][0]                  
__________________________________________________________________________________________________
dense_5 (Dense)                 (None, 50)           6750        concatenate_2[0][0]              
__________________________________________________________________________________________________
dense_6 (Dense)                 (None, 1)            51          dense_5[0][0]                    
==================================================================================================
Total params: 511,735
Trainable params: 511,735
Non-trainable params: 0
__________________________________________________________________________________________________
None
20:02:47  Fit
Train on 7909 samples, validate on 3391 samples
Epoch 1/10000
 - 2s - loss: 1.4215 - acc: 0.3029 - val_loss: 1.3849 - val_acc: 0.3757
…
