…
Wed Oct 10 08:31:16 2018 Read data
Wed Oct 10 08:31:20 2018 Create true list of tuples
Wed Oct 10 08:31:20 2018 Create false list of tuples
Wed Oct 10 08:31:21 2018 Merging lists
Wed Oct 10 08:31:21 2018 len(d_list):  11300
Wed Oct 10 08:31:21 2018 Create train input arrays
08:31:31  Model build
__________________________________________________________________________________________________
Layer (type)                    Output Shape         Param #     Connected to                     
==================================================================================================
input_1 (InputLayer)            (None, 1)            0                                            
__________________________________________________________________________________________________
input_2 (InputLayer)            (None, 84)           0                                            
__________________________________________________________________________________________________
dense_1 (Dense)                 (None, 100)          200         input_1[0][0]                    
__________________________________________________________________________________________________
dense_2 (Dense)                 (None, 100)          8500        input_2[0][0]                    
__________________________________________________________________________________________________
alpha_dropout_1 (AlphaDropout)  (None, 100)          0           dense_1[0][0]                    
__________________________________________________________________________________________________
alpha_dropout_2 (AlphaDropout)  (None, 100)          0           dense_2[0][0]                    
__________________________________________________________________________________________________
batch_normalization_1 (BatchNor (None, 100)          400         alpha_dropout_1[0][0]            
__________________________________________________________________________________________________
batch_normalization_2 (BatchNor (None, 100)          400         alpha_dropout_2[0][0]            
__________________________________________________________________________________________________
input_3 (InputLayer)            (None, 8840)         0                                            
__________________________________________________________________________________________________
activation_1 (Activation)       (None, 100)          0           batch_normalization_1[0][0]      
__________________________________________________________________________________________________
activation_2 (Activation)       (None, 100)          0           batch_normalization_2[0][0]      
__________________________________________________________________________________________________
concatenate_1 (Concatenate)     (None, 200)          0           activation_1[0][0]               
                                                                 activation_2[0][0]               
__________________________________________________________________________________________________
dense_3 (Dense)                 (None, 100)          884100      input_3[0][0]                    
__________________________________________________________________________________________________
dense_4 (Dense)                 (None, 84)           16884       concatenate_1[0][0]              
__________________________________________________________________________________________________
alpha_dropout_3 (AlphaDropout)  (None, 100)          0           dense_3[0][0]                    
__________________________________________________________________________________________________
batch_normalization_4 (BatchNor (None, 84)           336         dense_4[0][0]                    
__________________________________________________________________________________________________
batch_normalization_3 (BatchNor (None, 100)          400         alpha_dropout_3[0][0]            
__________________________________________________________________________________________________
activation_4 (Activation)       (None, 84)           0           batch_normalization_4[0][0]      
__________________________________________________________________________________________________
activation_3 (Activation)       (None, 100)          0           batch_normalization_3[0][0]      
__________________________________________________________________________________________________
concatenate_2 (Concatenate)     (None, 184)          0           activation_4[0][0]               
                                                                 activation_3[0][0]               
__________________________________________________________________________________________________
dense_5 (Dense)                 (None, 84)           15540       concatenate_2[0][0]              
__________________________________________________________________________________________________
batch_normalization_5 (BatchNor (None, 84)           336         dense_5[0][0]                    
__________________________________________________________________________________________________
activation_5 (Activation)       (None, 84)           0           batch_normalization_5[0][0]      
__________________________________________________________________________________________________
concatenate_3 (Concatenate)     (None, 85)           0           activation_5[0][0]               
                                                                 input_1[0][0]                    
__________________________________________________________________________________________________
dense_6 (Dense)                 (None, 100)          8600        concatenate_3[0][0]              
__________________________________________________________________________________________________
dense_7 (Dense)                 (None, 100)          8500        input_2[0][0]                    
__________________________________________________________________________________________________
alpha_dropout_4 (AlphaDropout)  (None, 100)          0           dense_6[0][0]                    
__________________________________________________________________________________________________
alpha_dropout_5 (AlphaDropout)  (None, 100)          0           dense_7[0][0]                    
__________________________________________________________________________________________________
batch_normalization_6 (BatchNor (None, 100)          400         alpha_dropout_4[0][0]            
__________________________________________________________________________________________________
batch_normalization_7 (BatchNor (None, 100)          400         alpha_dropout_5[0][0]            
__________________________________________________________________________________________________
activation_6 (Activation)       (None, 100)          0           batch_normalization_6[0][0]      
__________________________________________________________________________________________________
activation_7 (Activation)       (None, 100)          0           batch_normalization_7[0][0]      
__________________________________________________________________________________________________
concatenate_4 (Concatenate)     (None, 200)          0           activation_6[0][0]               
                                                                 activation_7[0][0]               
__________________________________________________________________________________________________
dense_8 (Dense)                 (None, 100)          884100      input_3[0][0]                    
__________________________________________________________________________________________________
dense_9 (Dense)                 (None, 84)           16884       concatenate_4[0][0]              
__________________________________________________________________________________________________
alpha_dropout_6 (AlphaDropout)  (None, 100)          0           dense_8[0][0]                    
__________________________________________________________________________________________________
batch_normalization_9 (BatchNor (None, 84)           336         dense_9[0][0]                    
__________________________________________________________________________________________________
batch_normalization_8 (BatchNor (None, 100)          400         alpha_dropout_6[0][0]            
__________________________________________________________________________________________________
activation_9 (Activation)       (None, 84)           0           batch_normalization_9[0][0]      
__________________________________________________________________________________________________
activation_8 (Activation)       (None, 100)          0           batch_normalization_8[0][0]      
__________________________________________________________________________________________________
concatenate_5 (Concatenate)     (None, 184)          0           activation_9[0][0]               
                                                                 activation_8[0][0]               
__________________________________________________________________________________________________
dense_10 (Dense)                (None, 84)           15540       concatenate_5[0][0]              
__________________________________________________________________________________________________
batch_normalization_10 (BatchNo (None, 84)           336         dense_10[0][0]                   
__________________________________________________________________________________________________
activation_10 (Activation)      (None, 84)           0           batch_normalization_10[0][0]     
__________________________________________________________________________________________________
concatenate_6 (Concatenate)     (None, 168)          0           activation_10[0][0]              
                                                                 input_2[0][0]                    
__________________________________________________________________________________________________
dense_11 (Dense)                (None, 100)          200         input_1[0][0]                    
__________________________________________________________________________________________________
dense_12 (Dense)                (None, 100)          16900       concatenate_6[0][0]              
__________________________________________________________________________________________________
alpha_dropout_7 (AlphaDropout)  (None, 100)          0           dense_11[0][0]                   
__________________________________________________________________________________________________
alpha_dropout_8 (AlphaDropout)  (None, 100)          0           dense_12[0][0]                   
__________________________________________________________________________________________________
batch_normalization_11 (BatchNo (None, 100)          400         alpha_dropout_7[0][0]            
__________________________________________________________________________________________________
batch_normalization_12 (BatchNo (None, 100)          400         alpha_dropout_8[0][0]            
__________________________________________________________________________________________________
activation_11 (Activation)      (None, 100)          0           batch_normalization_11[0][0]     
__________________________________________________________________________________________________
activation_12 (Activation)      (None, 100)          0           batch_normalization_12[0][0]     
__________________________________________________________________________________________________
concatenate_7 (Concatenate)     (None, 200)          0           activation_11[0][0]              
                                                                 activation_12[0][0]              
__________________________________________________________________________________________________
dense_13 (Dense)                (None, 100)          884100      input_3[0][0]                    
__________________________________________________________________________________________________
dense_14 (Dense)                (None, 84)           16884       concatenate_7[0][0]              
__________________________________________________________________________________________________
alpha_dropout_9 (AlphaDropout)  (None, 100)          0           dense_13[0][0]                   
__________________________________________________________________________________________________
batch_normalization_14 (BatchNo (None, 84)           336         dense_14[0][0]                   
__________________________________________________________________________________________________
batch_normalization_13 (BatchNo (None, 100)          400         alpha_dropout_9[0][0]            
__________________________________________________________________________________________________
activation_14 (Activation)      (None, 84)           0           batch_normalization_14[0][0]     
__________________________________________________________________________________________________
activation_13 (Activation)      (None, 100)          0           batch_normalization_13[0][0]     
__________________________________________________________________________________________________
concatenate_8 (Concatenate)     (None, 184)          0           activation_14[0][0]              
                                                                 activation_13[0][0]              
__________________________________________________________________________________________________
dense_16 (Dense)                (None, 100)          200         input_1[0][0]                    
__________________________________________________________________________________________________
dense_17 (Dense)                (None, 100)          8500        input_2[0][0]                    
__________________________________________________________________________________________________
dense_15 (Dense)                (None, 84)           15540       concatenate_8[0][0]              
__________________________________________________________________________________________________
alpha_dropout_10 (AlphaDropout) (None, 100)          0           dense_16[0][0]                   
__________________________________________________________________________________________________
alpha_dropout_11 (AlphaDropout) (None, 100)          0           dense_17[0][0]                   
__________________________________________________________________________________________________
batch_normalization_15 (BatchNo (None, 84)           336         dense_15[0][0]                   
__________________________________________________________________________________________________
batch_normalization_16 (BatchNo (None, 100)          400         alpha_dropout_10[0][0]           
__________________________________________________________________________________________________
batch_normalization_17 (BatchNo (None, 100)          400         alpha_dropout_11[0][0]           
__________________________________________________________________________________________________
activation_15 (Activation)      (None, 84)           0           batch_normalization_15[0][0]     
__________________________________________________________________________________________________
activation_16 (Activation)      (None, 100)          0           batch_normalization_16[0][0]     
__________________________________________________________________________________________________
activation_17 (Activation)      (None, 100)          0           batch_normalization_17[0][0]     
__________________________________________________________________________________________________
concatenate_9 (Concatenate)     (None, 8924)         0           input_3[0][0]                    
                                                                 activation_15[0][0]              
__________________________________________________________________________________________________
concatenate_10 (Concatenate)    (None, 200)          0           activation_16[0][0]              
                                                                 activation_17[0][0]              
__________________________________________________________________________________________________
dense_18 (Dense)                (None, 100)          892500      concatenate_9[0][0]              
__________________________________________________________________________________________________
dense_19 (Dense)                (None, 84)           16884       concatenate_10[0][0]             
__________________________________________________________________________________________________
alpha_dropout_12 (AlphaDropout) (None, 100)          0           dense_18[0][0]                   
__________________________________________________________________________________________________
batch_normalization_19 (BatchNo (None, 84)           336         dense_19[0][0]                   
__________________________________________________________________________________________________
batch_normalization_18 (BatchNo (None, 100)          400         alpha_dropout_12[0][0]           
__________________________________________________________________________________________________
activation_19 (Activation)      (None, 84)           0           batch_normalization_19[0][0]     
__________________________________________________________________________________________________
activation_18 (Activation)      (None, 100)          0           batch_normalization_18[0][0]     
__________________________________________________________________________________________________
concatenate_11 (Concatenate)    (None, 184)          0           activation_19[0][0]              
                                                                 activation_18[0][0]              
__________________________________________________________________________________________________
dense_20 (Dense)                (None, 84)           15540       concatenate_11[0][0]             
__________________________________________________________________________________________________
batch_normalization_20 (BatchNo (None, 84)           336         dense_20[0][0]                   
__________________________________________________________________________________________________
activation_20 (Activation)      (None, 84)           0           batch_normalization_20[0][0]     
__________________________________________________________________________________________________
dense_21 (Dense)                (None, 1)            85          activation_20[0][0]              
==================================================================================================
Total params: 3,733,669
Trainable params: 3,729,925
Non-trainable params: 3,744
__________________________________________________________________________________________________
None
08:31:33  Fit
Train on 7909 samples, validate on 3391 samples
Epoch 1/5000
…
